model/model.pth (torch, 14900 bytes, 6 tensors)

linear1.weight f4 [32, 17]
-0.21089236 -0.20421973 -0.36820903 0.580162 0.14280832 -0.56912273 0.28441682 0.3758757
-0.13965513 -0.13459286 -0.20877776 0.054898527 -0.14853513 -0.056052826 -0.31184873 -0.111543424
0.46693143 0.3250357 -0.45340014 0.31093112 -0.2696124 -0.20678711 0.31019697 0.3254014
0.016090944 0.10265714 -0.021903902 -0.04598983 -0.22783935 -0.07178083 -0.08270969 0.01097329
0.5036556 0.4849924 0.1090946 -0.323698 -0.15295166 -0.09407608 -0.0706276 0.022705575
0.0057974937 -0.11248269 0.10664697 -0.14064589 0.40128988 -0.15478006 0.33114198 0.17768511
0.22465058 0.5439607 0.48542786 -0.44476902 -0.45879796 0.16616425 -0.20568275 -0.4673804
-0.14900868 -0.6401675 0.034637928 0.15071133 -0.15844603 0.15827696 -0.6982552 -0.12512209
0.062287323 0.34263313 -0.086581185 -0.19420293 -0.006886562 -0.37783855 0.056316365 -0.371357
-0.32787222 -0.41897964 0.6149422 -0.3036396 -0.37640527 -0.5854656 -0.14554572 -0.31879556
0.16024026 -0.57939327 -0.5657826 -0.09188331 -0.3414428 0.3211319 -0.36377427 0.14726356
0.26616904 -0.13738619 0.5334281 0.28077117 -0.21976194 0.21728657 -0.008829944 0.27513736
0.41845503 0.014893742 -0.07035669 -0.053126443 -0.13419953 -0.09965401 -0.530399 0.45220459
0.013204199 -0.012815629 -0.07430731 0.17395112 -0.08005133 -0.056794796 0.320319 -0.22285955
0.17569828 0.010222671 -0.26727128 0.111011684 -0.23270634 -0.3442763 -0.29144627 -0.07223383
-0.27202672 0.21595097 -0.0667446 0.04970257 0.22062533 0.07311931 0.124108925 0.14028206
-0.082590535 -0.15387087 0.45041272 0.13912223 -0.05457755 0.28196102 -0.6351077 -0.22358793
-0.72289693 0.023043895 -0.1787409 0.26554188 0.41703874 -0.15832533 0.21824722 0.14653474
-0.2910854 -0.13352033 0.35942817 -0.005690508 0.07522645 0.36602643 -0.2454325 0.19696091
0.047265902 0.47313374 -0.44948328 -0.16364631 -0.111581154 -0.30741638 0.04602488 0.08867901
0.34784904 -0.058830854 -0.290329 0.1879305 0.3488023 -0.04600803 -0.022666207 0.096455105
0.2477043 0.20326924 -0.4383524 0.47481942 -0.14627852 -0.04906865 0.5590568 0.045593005
-0.0744177 -0.24896903 -0.21947326 0.059741966 0.016550913 0.29454982 0.15878846 0.013144557
0.050618507 -0.51768315 -0.72293466 0.16877773 0.5866228 -0.0038775858 -0.09499098 0.06971338
0.32106683 -0.31920633 0.10523355 -0.14604741 -0.05132103 -0.112546295 0.4652561 0.007916688
-0.39168492 -0.3893231 -0.4417338 -0.22520667 0.07029791 -0.35882515 0.12109887 0.19144863
-0.035676807 0.6466063 -0.5057848 -0.20133181 -0.3329715 -0.020588633 -0.29367933 0.3187641
-0.5268481 -0.24716346 0.30242553 -0.4005908 -0.30264428 -0.5688583 -0.00034342098 0.237073
-0.10787518 -0.10220328 -0.032174032 -0.07230855 -0.29393893 0.08492313 0.16123281 0.35790774
0.11250512 0.39981118 0.22104144 0.20207728 0.5290831 0.3770892 -0.6426748 0.3352819
0.015651837 0.10092196 0.25350353 0.025031367 0.15168309 0.012878101 -0.24778664 -0.043967307
-0.13929401 -0.18376605 0.24143423 0.12828496 0.28718862 -0.04719794 -0.063786834 0.27013654
00000000: 2bf4 57be fa1e 51be e585 bcbe 7f85 143f
00000010: 583c 123e 07b2 11bf 159f 913e c872 c03e
00000020: c101 0fbe b6d2 09be d6c9 55be 47dd 603d
00000030: 9819 18be a697 65bd a3aa 9fbe e170 e4bd
00000040: a311 ef3e 146b a63e 1024 e8be 5d32 9f3e
00000050: a30a 8abe 00c0 53be 23d2 9e3e 039b a63e
00000060: 28d1 833c e83d d23d d06f b3bc d55f 3cbd
00000070: b84e 69be d401 93bd b363 a9bd 50c9 333c
00000080: 93ef 003f ed50 f83e fd6c df3d bfbb a5be
00000090: 5c9f 1cbe f6aa c0bd 34a5 90bd 0b01 ba3c
000000a0: e7f8 bd3b 535d e6bd ba69 da3d 7a05 10be
000000b0: de75 cd3e aa7e 1ebe 718b a93e 16f3 353e
000000c0: cd0a 663e 0241 0b3f 008a f83e c4b8 e3be
000000d0: 91e7 eabe f626 2a3e 809e 52be 7c4c efbe
000000e0: bb95 18be 04e2 23bf 80e0 0d3d 1254 1a3e
000000f0: ad3f 22be 5b13 223e dac0 32bf 0120 00be
00000100: fe20 7f3d 9c6d af3e 7a51 b1bd 22dd 46be
00000110: aba8 e1bb 0e74 c1be fdab 663d 8122 bebe
00000120: dede a7be 8084 d6be da6c 1d3f a676 9bbe
00000130: 31b8 c0be 13e1 15bf f009 15be 2c39 a3be
00000140: 0616 243e 1e53 14bf 21d7 10bf 512d bcbd
00000150: 97d1 aebe 676b a43e 9f40 babe 42cc 163e
00000160: 4f47 883e f7ae 0cbe be8e 083f 3dc1 8f3e
00000170: 4609 61be 5f80 5e3e 78ab 10bc cede 8c3e
00000180: bd3f d63e e204 743c 2b17 90bd 1d9b 59bd
00000190: 9a6b 09be 6717 ccbd 3bc8 07bf 5c87 e73e
000001a0: 6d56 583c a5f8 51bc 6e2e 98bd 3e20 323e
000001b0: f4f1 a3bd a9a1 68bd da00 a43e 4b35 64be
000001c0: 40ea 333e fd7c 273c c8d7 88be 185a e33d
000001d0: 924a 6ebe fc44 b0be 7238 95be 55ef 93bd
000001e0: 1647 8bbe 4022 5d3e 65b1 88bd ec94 4b3d
000001f0: 9beb 613e 94bf 953d d22c fe3d 1aa6 0f3e
00000200: 3a25 a9bd 5390 1dbe 7f9c e63e 0f76 0e3e
00000210: b68c 5fbd 325d 903e 6b96 22bf 3cf4 64be
00000220: c60f 39bf 8dc6 bc3c db07 37be 1bf5 873e
00000230: 1a86 d53e 0920 22be 337c 5f3e 340d 163e
00000240: 2509 95be 8eb9 08be f806 b83e 7177 babb
00000250: 5310 9a3d d167 bb3e a852 7bbe 1fb0 493e
00000260: e499 413d 963e f23e ac22 e6be e692 27be
00000270: a984 e4bd ae65 9dbe 9684 3c3d 579d b53d
00000280: 4519 b23e 9ff8 70bd 01a6 94be da70 403e
00000290: 3796 b23e eb72 3cbd 7bae b9bc 418a c53d
000002a0: 32a6 7d3e d025 503e ba6f e0be 881b f33e
000002b0: 09ca 15be 35fc 48bd 591e 0f3f bbbf 3a3d
000002c0: 4f68 98bd bdf1 7ebe 99bd 60be feb3 743d
000002d0: c895 873c 3ccf 963e 7199 223e 455c 573c
000002e0: 5a55 4f3d e286 04bf 3f12 39bf 12d4 2c3e
000002f0: e92c 163f 181f 7ebb a28a c2bd e3c5 8e3d
00000300: df62 a43e 036f a3be b084 d73d 748d 15be
00000310: 0036 52bd ac7e e6bd 0c36 ee3e ffb4 013c
00000320: ed8a c8be 5b55 c7be ef2a e2be 949c 66be
00000330: 5af8 8f3d eeb7 b7be af02 f83d 1c0b 443e
00000340: d821 12bd fe87 253f 1d7b 01bf ed29 4ebe
00000350: 3e7b aabe 7ea9 a8bc 235d 96be 0c35 a33e
00000360: 84df 06bf 6b18 7dbe 85d7 9a3e 3d1a cdbe
00000370: 31f4 9abe b3a0 11bf 2f0d b4b9 44c3 723e
00000380: aaed dcbd f44f d1bd ebc8 03bd 8116 94bd
00000390: 2a7f 96be 2eec ad3d 371a 253e af3f b73e
000003a0: 1669 e63d 0db4 cc3e b058 623e 59ed 4e3e
000003b0: fd71 073f d611 c13e 5686 24bf 12aa ab3e
000003c0: 4838 803c 2cb0 ce3d 37cb 813e 950e cd3c
000003d0: d052 1b3e acfe 523c c8bb 7dbe 1017 34bd
000003e0: 17a3 0ebe 2b2d 3cbe 893a 773e 225d 033e
000003f0: 630a 933e a152 41bd aca2 82bd 564f 8a3e

linear1.bias f4 [32]
0.33159322 -0.062481914 -0.15346284 -0.02575589 0.32939643 -0.33984897 0.15711144 -0.40103656
0.03548403 -0.35257772 0.32465586 0.412898 0.14803553 -0.1993169 -0.07501445 0.34707722
0.39269117 0.11502721 0.15807532 0.17601317 0.13834439 0.38667879 -0.4287144 0.41137338
0.23682827 -0.2816879 -0.47956952 -0.02676201 0.23915458 0.27407557 0.23476896 0.23507412
00000000: 96c6 a93e 09ed 7fbd 5d25 1dbe 04fe d2bc
00000010: a6a6 a83e af00 aebe d2e1 203e aa54 cdbe
00000020: b457 113d 1185 b4be 4b39 a63e 5e67 d33e
00000030: a096 173e bb19 4cbe 2da1 99bd 1bb4 b13e
00000040: d10e c93e 6393 eb3d 7fde 213e cc3c 343e
00000050: 27aa 0d3e c3fa c53e 7480 dbbe 889f d23e
00000060: 1c83 723e 6539 90be 238a f5be 013c dbbc
00000070: f0e4 743e a253 8c3e 4667 703e 45b7 703e

linear2.weight f4 [64, 32]
0.27770153 -0.24385412 -0.14653264 -0.38359645 -0.09007306 -0.026671942 0.5452214 -0.28292656
0.30193985 -0.59695345 0.36886686 0.1872474 -0.02738959 0.092353694 0.7204544 0.007159862
0.17293362 0.5823876 -0.001349133 0.14874788 1.041461 0.5971036 0.21918498 0.0064462563
-0.016671855 -0.13391376 -0.35237178 -0.24206303 0.21151988 -0.26583654 0.14963852 0.027915094
0.35129386 -0.04341446 -0.17781994 -0.2920095 -0.030750092 0.02226849 -0.06423078 -0.32921612
0.2296552 -0.462854 0.16130465 0.49693134 -0.2076258 -0.1467501 0.120868176 0.25694865
0.44409758 0.25991088 0.05857827 0.1508278 0.9119706 0.1304528 -0.34092796 0.18748936
-0.05430883 0.091024846 -0.47305235 -0.15704854 -0.04770898 0.059369244 0.2042258 0.7388179
0.2189949 -0.44391927 -0.39156187 0.18261918 -0.48807847 -0.15112677 0.78428227 -0.050687764
0.2957451 0.060242925 0.18276581 0.3513545 0.07181167 -0.05837051 0.41203296 -0.37348095
-0.22854608 0.1400385 0.11658364 0.63730204 0.35896692 0.35701612 0.66361344 -0.09474074
-0.28071597 -0.20956984 0.13133967 0.2681832 0.0368199 0.30429804 0.2184292 0.10394865
0.59009004 0.3231382 0.23315994 0.24528624 0.36502835 -0.07421861 -0.19301131 -0.23928848
0.14896387 0.1533161 -0.3760578 -0.7131321 -0.12405073 0.15787825 0.1477668 0.6660989
0.17422844 -0.015243047 0.07911164 -0.07513757 0.3585046 0.13851964 -0.11525559 0.026320491
0.065991424 0.17465018 0.12981267 -0.2268499 0.4594711 -0.6561382 0.33481434 0.36433932
0.0814787 0.234033 0.37080634 0.3007462 0.0389325 0.24474183 0.1701923 0.27792832
0.16183378 0.49311632 -0.266295 -0.906299 -0.041983478 0.16222638 -0.0059945066 -0.17322639
0.25737953 0.171903 -0.17247482 0.027056374 -1.003019 0.21014114 0.41704062 -0.3528836
-0.4355899 0.0016723413 0.6043876 0.3438423 0.18477994 -0.10640363 -0.26715127 -0.2692553
-0.26824448 0.2347087 -0.086491026 0.22450665 -0.27030662 0.31660748 0.22178493 0.40880123
-0.08451558 0.82242393 0.060943723 0.01592437 0.3464581 -0.06007663 -0.1472812 -0.19422457
-0.37338313 -0.17741261 0.23711927 -0.090644196 -0.35356745 -0.37802985 0.4353274 0.13667001
-0.15116398 -0.005319133 0.3864476 0.34815207 -0.058100417 0.0428992 0.08802141 -0.14822839
-0.27068716 -0.18708593 0.08930224 -0.32277533 0.19930989 0.13434781 0.04755508 0.17361619
0.12220995 -0.5515369 0.3816299 0.16734514 0.33060423 0.1675892 0.23993556 -0.20551085
0.26055655 0.30005774 0.004768899 0.3875553 -0.2975988 -0.009512929 0.16807078 0.112788245
-0.022244979 -0.14711331 -0.18451658 0.10632577 -0.0009144865 0.6003281 0.14717948 0.29798323
0.24125716 0.13345717 0.1533919 0.65178347 0.68895006 0.45396405 -0.41373652 -0.030462893
-0.13998725 0.037965443 -0.2536155 0.042060453 0.5806069 0.04530379 -0.26601553 0.37391117
0.22308034 -0.17836945 0.47940692 -0.055874042 -0.4999416 -0.23716536 -0.38414893 0.3893844
0.22424859 0.20059276 -0.25380874 0.38797027 0.4443263 0.3350736 0.5337618 0.44349453
00000000: e52e 8e3e e5b4 79be a70c 16be c166 c4be
00000010: 3978 b8bd 1e7f dabc a193 0b3f c0db 90be
00000020: dc97 9a3e f1d1 18bf 1edc bc3e c8bd 3f3e
00000030: 2260 e0bc ef23 bd3d b36f 383f 479d ea3b
00000040: 8315 313e 5b17 153f 64d5 b0ba 5d51 183e
00000050: 984e 853f c8db 183f 0772 603e 1e3b d33b
00000060: 6a93 88bc b020 09be 136a b4be 5fdf 77be
00000070: ab98 583e ba1b 88be d73a 193e 32ae e43c
00000080: cadc b33e 5cd3 31bd 6e16 36be 4582 95be
00000090: 9ee7 fbbc 696c b63c 6d8b 83bd 048f a8be
000000a0: bc2a 6b3e 33fb ecbe 0c2d 253e c96d fe3e
000000b0: dc9b 54be a945 16be bc89 f73d c68e 833e
000000c0: c260 e33e 0a13 853e c5ef 6f3d 9a72 1a3e
000000d0: e876 693f 6b95 053e 1c8e aebe 36fd 3f3e
000000e0: f072 5ebd 3c6b ba3d eb33 f2be 55d1 20be
000000f0: 7e6a 43bd 2a2d 733d 9120 513e 2b23 3d3f
00000100: 3340 603e 6349 e3be cc7a c8be 8600 3b3e
00000110: 6ce5 f9be fac0 1abe b9c6 483f f99d 4fbd
00000120: e76b 973e 49c1 763d f626 3b3e bde4 b33e
00000130: ff11 933d ea15 6fbd fcf5 d23e e538 bfbe
00000140: fc07 6abe 4166 0f3e 67c3 ee3d 3a26 233f
00000150: 83ca b73e d1ca b63e 92e2 293f 6f07 c2bd
00000160: 01ba 8fbe 7a99 56be e87d 063e 4f4f 893e
00000170: 77d0 163d f4cc 9b3e e7ab 5f3e 08e3 d43d
00000180: 2410 173f 5f72 a53e 7bc1 6e3e 512c 7b3e
00000190: ffe4 ba3e edff 97bd c2a4 45be 0a08 75be
000001a0: fc89 183e e5fe 1c3e a68a c0be d38f 36bf
000001b0: 4f0e febd d6aa 213e 2e50 173e 7585 2a3f
000001c0: f168 323e f9bd 79bc 4905 a23d bae1 99bd
000001d0: ea8d b73e 18d8 0d3e 1f0b ecbd 129e d73c
000001e0: 8326 873d 7fd7 323e 9ded 043e 574b 68be
000001f0: cc3f eb3e acf8 27bf c96c ab3e af8a ba3e
00000200: 4ede a63d 59a6 6f3e 54da bd3e 68fb 993e
00000210: af77 1f3d 9a9d 7a3e e446 2e3e 9f4c 8e3e
00000220: c1b7 253e be79 fc3e d157 88be 3603 68bf
00000230: def6 2bbd ac1e 263e 916d c4bb 4262 31be
00000240: 40c7 833e 5707 303e 3d9d 30be 54a5 dd3c
00000250: ed62 80bf 3d2f 573e 5986 d53e 29ad b4be
00000260: a405 dfbe 7632 db3a 25b9 1a3f 190c b03e
00000270: f436 3d3e 25ea d9bd 0dc8 88be d5db 89be
00000280: 5757 89be 7a57 703e 3522 b1bd 12e5 653e
00000290: a165 8abe 601a a23e 971b 633e 654e d13e
000002a0: 8116 adbd 608a 523f 20a0 793d d373 823c
000002b0: f562 b13e ea12 76bd e2d0 16be cee2 46be
000002c0: 132c bfbe a7ab 35be 65cf 723e aaa3 b9bd
000002d0: cb06 b5be 218d c1be 3ce3 de3e 39f3 0b3e
000002e0: bbca 1abe 1f4c aebb 76dc c53e fd40 b23e
000002f0: b4fa 6dbd 12b7 2f3d 9244 b43d 2fc9 17be
00000300: 8297 8abe 7493 3fbe 18e4 b63d cf42 a5be
00000310: e417 4c3e 7992 093e 1ec9 423d 71c8 313e
00000320: 3649 fa3d 8631 0dbf ff64 c33e 865c 2b3e
00000330: f544 a93e 819c 2b3e abb1 753e 7071 52be
00000340: ab67 853e 2ba1 993e 6d44 9c3b a66d c63e
00000350: df5e 98be 1edc 1bbc bf1a 2c3e 86fd e63d
00000360: 1a3b b6bc dfa4 16be eaf1 3cbe 53c1 d93d
00000370: 26ba 6fba 1aaf 193f 38b6 163e 4291 983e
00000380: 1e0c 773e ffa8 083e c412 1d3e 48db 263f
00000390: 085f 303f fa6d e83e 46d5 d3be 518d f9bc
000003a0: d158 0fbe a781 1b3d e4d9 81be 9547 2c3d
000003b0: a7a2 143f 7890 393d 3033 88be 4971 bf3e
000003c0: 2c6f 643e 7ba6 36be d374 f53e 2edc 64bd
000003d0: 58f8 ffbe 7adb 72be 2baf c4be 645d c73e
000003e0: 6ca1 653e 3068 4d3e 38f3 81be 0aa4 c63e
000003f0: bd7e e33e c48e ab3e 9da4 083f b711 e33e

linear2.bias f4 [64]
0.27635628 0.26965594 0.06731049 0.15890789 -0.32375678 -0.04353312 0.035385672 0.17130914
0.19020177 -0.01236331 0.37820888 -0.13505477 0.023185873 0.23273645 -0.06023717 -0.18428686
0.18569303 0.03963225 0.4290266 -0.11420862 0.03702733 0.23271449 0.11389173 0.16051945
0.076701865 0.33454058 -0.15432143 0.34936562 0.025317222 -0.07069979 -0.113022044 0.17179962
-0.090328455 0.17572317 0.086109504 0.1446417 0.025050417 0.0022030852 0.22390866 0.25821984
0.10217629 0.21536963 0.030737974 0.19435474 -0.17491306 0.20937479 -0.008981091 0.18351766
0.17086981 -0.14539616 0.22862671 0.13749935 0.14504033 0.09442323 0.20448498 0.1969224
-0.0047952104 -0.07553848 0.072354175 0.23666221 -0.028152363 0.38932434 0.081421785 0.22693808
00000000: 927e 8d3e 5810 8a3e 15da 893d c0b8 223e
00000010: 73c3 a5be c94f 32bd 91f0 103d aa6b 2f3e
00000020: 41c4 423e 7b8f 4abc 98a4 c13e cc4b 0abe
00000030: 4df0 bd3c 7752 6e3e 40bb 76bd b2b5 3cbe
00000040: 5026 3e3e 6d55 223d 60a9 db3e 35e6 e9bd
00000050: f8a9 173d b54c 6e3e 1140 e93d 365f 243e
00000060: de15 9d3d e748 ab3e 7006 1ebe 0de0 b23e
00000070: 1066 cf3c 0dcb 90bd 1a78 e7bd 3dec 2f3e
00000080: 20fe b8bd c6f0 333e 2e5a b03d f41c 143e
00000090: 8836 cd3c a361 103b 5048 653e 6435 843e
000000a0: cd41 d13d db89 5c3e 34ce fb3c ee04 473e
000000b0: 691c 33be 5866 563e 6d25 13bc 0eec 3b3e
000000c0: 7ff8 2e3e bbe2 14be 1f1d 6a3e a1cc 0c3e
000000d0: 7485 143e f760 c13d 8364 513e 07a6 493e
000000e0: 2421 9dbb ebb3 9abd 6d2e 943d 9457 723e
000000f0: c99f e6bc 8555 c73e 77c0 a63d 7562 683e

linear3.weight f4 [7, 64]
-0.6046805 -0.0033637588 -0.41511786 -0.15131664 -0.5284526 0.07352986 0.22125518 0.28448033
0.5186087 -0.44076404 0.27695668 -0.43963137 0.17049563 0.21792628 0.10460893 -0.030947952
0.2762964 -0.59542805 0.37071455 -0.26403072 0.04628935 -0.22782135 0.030040463 0.119087
-0.011315406 0.2814768 0.1269682 0.109210245 -0.19803473 -0.03310447 -0.71237564 0.15629187
0.24019994 -0.21552357 -0.48118198 0.2554526 -0.3832781 -0.5664473 0.32852378 0.2590847
-0.8610216 0.3534768 0.18998857 0.34661105 -0.8120977 -0.19460604 0.013145657 0.4373593
-0.45863226 0.2022609 0.14736693 0.088913254 0.24498169 0.088127375 0.024688324 0.23589584
0.04167993 -0.0001192987 0.18233424 0.1571828 -0.4364107 0.00147057 0.37096348 0.61027944
0.22361203 0.11460864 0.16792883 0.08796057 0.50445217 -0.3389737 0.2330278 0.04632556
-0.39612764 0.2468682 0.075309195 0.15502667 0.04694755 0.09240158 0.20805797 0.03368122
0.11573478 0.18667817 -0.40359032 0.3688017 0.25430995 0.13504572 -0.10591592 0.0047195177
0.0030440046 0.11835064 -0.18205403 0.19207247 0.21171583 -0.22003047 0.35925618 -0.487107
0.2509892 -0.17629759 0.30217746 0.1500433 -0.011045528 0.13261436 -0.32778135 0.1997471
-0.14952779 0.14733784 -0.093888685 -0.7352107 0.05608943 0.056942195 0.23121093 -0.15141752
0.28141436 0.31634134 -0.49114388 0.008137724 -0.17158501 0.11614178 -0.5401394 -0.14410399
0.2279099 0.039256006 -0.21816215 -0.53131527 0.09224409 0.22273226 -0.44810054 -0.008598084
0.22366393 -0.47703043 0.25520685 -0.53755426 0.30849922 0.28016526 0.23458509 -0.21987061
0.12754416 0.23139106 -0.41033474 0.3953111 0.09189795 -0.13716465 0.25601965 0.09240307
-0.8077729 0.17980736 -0.57133716 0.13770758 0.16900559 -0.0016286788 -0.33245426 -0.43757808
0.28466383 -0.28570235 0.39458394 -0.6545803 -0.6392378 -0.03733094 0.35718608 0.3617297
0.38816324 0.32871446 0.29507542 -0.038429588 -0.22749276 -0.23017891 -0.29606357 -0.9211
-0.6685902 0.21977928 0.03989342 0.35330984 0.2780286 0.21045169 0.2867006 -0.42153874
0.25273386 0.16565372 -0.21162838 0.27064744 -0.5351902 -0.12476369 -0.6823663 0.22543329
0.31736135 -0.023630612 0.20030487 -0.08481551 0.311282 -0.49430627 -0.042953786 0.09614721
0.43816566 0.47034097 0.3275938 -0.0073946365 -0.6330839 -0.20560984 0.026268756 -0.5457623
-0.1412183 0.1656697 0.06681484 0.22863036 0.099584445 0.21504623 0.12726866 -0.09511699
0.2350169 0.27857187 -0.12928756 -0.5468616 0.24671125 0.2820775 0.015086102 0.0414296
0.35875285 -0.19940944 -0.3195766 -0.033136815 0.02117328 -0.2578436 -0.2509141 0.07487314
-0.1543041 0.12494859 0.42751873 -0.62329 0.6248528 -0.6841879 0.1344459 0.24107833
-0.6679536 0.3250799 -0.46749106 0.10563072 0.0008890475 0.15230042 -0.5286805 0.110830575
0.23599754 0.049604572 -0.49101758 -0.13302994 0.25879613 0.35071543 0.3546146 -0.36986822
0.23625264 -0.085208856 0.25105485 -0.9908638 -0.47991225 0.20921788 -0.40331656 0.17269343
00000000: 57cc 1abf 8272 5cbb 548a d4be c0f2 1abe
00000010: ab48 07bf d396 963d b890 623e 68a7 913e
00000020: 8ac3 043f d3ab e1be 44cd 8d3e 5d17 e1be
00000030: 6896 2e3e 1128 5f3e 353d d63d 8f86 fdbc
00000040: b976 8d3e f96d 18bf 4cce bd3e 092f 87be
00000050: e799 3d3d 004a 69be 6b17 f63c e3e3 f33d
00000060: 4164 39bc ba1d 903e f403 023e 9fa9 df3d
00000070: 9ec9 4abe 8e98 07bd 405e 36bf fa0a 203e
00000080: f9f6 753e 36b2 5cbe 7c5d f6be afca 823e
00000090: 073d c4be b102 11bf 4534 a83e c0a6 843e
000000a0: e96b 5cbf e9fa b43e 5d8c 423e 0177 b13e
000000b0: a3e5 4fbf ce46 47be e260 573c 8fed df3e
000000c0: d9d1 eabe 7b1d 4f3e 5be7 163e 2718 b63d
000000d0: 7bdc 7a3e 207c b43d 2b3f ca3c ae8e 713e
000000e0: 93b8 2a3d 0030 fab8 d4b5 3a3e 87f4 203e
000000f0: 3971 dfbe 24c0 c03a edee bd3e 463b 1c3f
00000100: 8dfa 643e efb7 ea3d 89f5 2b3e ac24 b43d
00000110: c723 013f f68d adbe d79e 6e3e dfbf 3d3d
00000120: 3ed1 cabe 04cb 7c3e b53b 9a3d 50bf 1e3e
00000130: 134c 403d 0a3d bd3d 260d 553e 52f5 093d
00000140: 5b06 ed3d 9028 3f3e 64a3 cebe 94d3 bc3e
00000150: ea34 823e 6d49 0a3e 72ea d8bd 2fa6 9a3b
00000160: ec7d 473b d261 f23d 5f6c 3abe a5ae 443e
00000170: 09cc 583e ab4f 61be 6df0 b73e 1766 f9be
00000180: a881 803e 5b87 34be 01b7 9a3e f3a4 193e
00000190: 4df8 34bc 0fcc 073e f5d2 a7be 818a 4c3e
000001a0: d01d 19be bbdf 163e b648 c0bd c536 3cbf
000001b0: 08be 653d 383c 693d 8fc2 6c3e 320d 1bbe
000001c0: 8b15 903e 7ef7 a13e 3677 fbbe 1754 053c
000001d0: fbb3 2fbe bedb ed3d 9346 0abf ff8f 13be
000001e0: 3661 693e e8ca 203d e665 5fbe 4704 08bf
000001f0: 78ea bc3d ed13 643e 6f6d e5be fade 0cbc
00000200: 2808 653e 553d f4be 79aa 823e 289d 09bf
00000210: 9cf3 9d3e d271 8f3e 1337 703e c325 61be
00000220: f09a 023e c7f1 6c3e 6517 d2be 3766 ca3e
00000230: fe34 bc3d e474 0cbe 0215 833e d23d bd3d
00000240: 34ca 4ebf 6c1f 383e 2743 12bf 3703 0d3e
00000250: cd0f 2d3e 6479 d5ba 7237 aabe 3c0a e0be
00000260: 75bf 913e 9447 92be e806 ca3e 9392 27bf
00000270: 17a5 23bf 54e8 18bd 18e1 b63e a334 b93e
00000280: 55bd c63e 434d a83e 2014 973e 5868 1dbd
00000290: ddf3 68be 05b4 6bbe a595 97be 36cd 6bbf
000002a0: ba28 2bbf d20d 613e 4867 233d 07e5 b43e
000002b0: c459 8e3e a680 573e 6cca 923e edd3 d7be
000002c0: 5566 813e 21a1 293e 1cb5 58be 4d92 8a3e
000002d0: 3a02 09bf 1b84 ffbd 8faf 2ebf fcd7 663e
000002e0: 307d a23e fc94 c1bc b81c 4d3e c1b3 adbd
000002f0: 5b60 9f3e b615 fdbe 4ff0 2fbd d4e8 c43d
00000300: 4057 e03e 88d0 f03e 60ba a73e b54e f2bb
00000310: c911 22bf 638b 52be 9331 d73c 14b7 0bbf
00000320: 889b 10be 51a5 293e 38d6 883d 141e 6a3e
00000330: eef2 cb3d 1435 5c3e b752 023e b2cc c2bd
00000340: 45a8 703e f9a0 8e3e f563 04be 1fff 0bbf
00000350: e0a1 7c3e 766c 903e b32b 773c 16b2 293d
00000360: 74ae b73e fd31 4cbe 8b9f a3be 78ba 07bd
00000370: 9673 ad3c 1404 84be d077 80be 1757 993d
00000380: e501 1ebe 0ce5 ff3d bce3 da3e ef8f 1fbf
00000390: 5af6 1f3f f026 2fbf 30ac 093e 3ddd 763e
000003a0: 02ff 2abf df70 a63e fd5a efbe eb54 d83d
000003b0: f80e 693a a4f4 1b3e 9b57 07bf 24fb e23d
000003c0: 57a9 713e 2a2e 4b3d a866 fbbe 0039 08be
000003d0: ed80 843e f990 b33e 0b90 b53e 5e5f bdbe
000003e0: 36ec 713e fb81 aebd 438a 803e 40a9 7dbf
000003f0: 0fb7 f5be 363d 563e 827f cebe 8cd6 303e

linear3.bias f4 [7]
0.1340581 -0.15028115 -0.107015446 0.42501542 0.21185967 0.09511828 0.059861608
00000000: 8746 093e 4de3 19be ea2a dbbd 9f9b d93e
00000010: bef1 583e 5fcd c23d 7231 753d
